Pytorch/model/CNNModel.pth (torch, 35157 bytes, 10 tensors)

convblock.0.weight f4 [10, 1, 3, 3]
00000000: 1dd0 c43e f787 ee3e fc34 d73c 4d7f ed3e
00000010: 6de2 073e 3c8a 463e 580c 15bd 8271 b63e
00000020: a0b2 be3e 0818 26be 3679 ee3e 9577 083e
00000030: f379 c23e fb8b 823e 321d 853e 8bb0 b93d
00000040: 6890 e63e a4aa f23d 3edf 49be 2f03 cc3d
00000050: 7ebb 59bd fdbe 2cbe 4d49 41be 90e1 903e
00000060: 8ba6 d1be 82ff 61be 079d 16bd d81c 41be
00000070: 2981 063d 19f0 a7be 86a5 ad3e 934d 91be
00000080: e824 863e e9e3 eb3d 5232 b1bd cb72 653e
00000090: e61c 173e e8d6 dd3e 7362 e83d f810 fe3c
000000a0: b429 903e c80b c13b 0857 8c3e 351d f63e
000000b0: 0da5 8a3e 8fef 14be 70bd 453e e61f 773d
000000c0: 1e36 2e3e 99e1 4fbe b1fd a8be 0caa 03be
000000d0: aceb 82be 7fbd 8b3e c31e 483e bcc8 4d3e
000000e0: 887b 033e 5ab5 c33d 9f2a 9a3e c7e6 6dbe
000000f0: 2b22 f13d ef4b 53be c069 a23d 0de0 febd
00000100: f991 c83d a922 8cbd 07e0 833e fb82 53be
00000110: 6fe5 4bbe a038 5fbe 232d 8f3e f556 c83d
00000120: c12a a13e ea0e 8dbe a22d a9be bacd 89be
00000130: 8121 67be c434 083e a183 e23d 3af2 8c3e
00000140: e4d7 30be 93af 68be 5802 353e 7104 0abe
00000150: 4e3c 4f3e 3c21 a2bd 1224 433e 6098 84be
00000160: 4b3f 2cbe 4407 d03d
0.38440028 0.46588108 0.026270382 0.46386185 0.13269968 0.1938867 -0.036388725 0.35633475
0.37245655 -0.16220105 0.46576852 0.13326867 0.37983665 0.25497422 0.25998837 0.09066876
0.45032048 0.11848953 -0.19714066 0.09961545 -0.053157322 -0.16869731 -0.18875618 0.2829709
-0.40947375 -0.22070125 -0.036770847 -0.1885866 0.03283802 -0.32800367 0.33915347 -0.28379497
0.26200032 0.1151808 -0.08652176 0.22407071 0.14757118 0.43328023 0.11346903 0.03101395
0.28156817 0.005891297 0.2741015 0.48069158 0.2707905 -0.1454451 0.19310546 0.060333155
0.17012832 -0.20300902 -0.3300605 -0.12857836 -0.25570428 0.27293012 0.19542985 0.20096105
0.12840092 0.095560744 0.30110642 -0.23232566 0.11774095 -0.20634435 0.079303265 -0.12445078
0.09793467 -0.068425484 0.25756857 -0.20655434 -0.1991174 -0.21798944 0.27964124 0.09782211
0.3147793 -0.2755044 -0.33042628 -0.2691477 -0.22571374 0.13301378 0.110602625 0.27528554
-0.17269856 -0.22723226 0.17676675 -0.13478257 0.20237848 -0.07916495 0.19056728 -0.25897503
-0.1682102 0.10157636

convblock.0.bias f4 [10]
00000000: 9989 6a3d 4545 8d3d 24cb 813e 9203 a63e
00000010: b012 dc3c d0b7 35be b87d ec3e 5581 0ebe
00000020: 9d0a 00be 292e a5be
0.05726013 0.06897978 0.25350296 0.324246 0.02686438 -0.177459 0.46189666 -0.13916524
-0.12504049 -0.3226178

convblock.2.weight f4 [10, 10, 3, 3]
00000000: a0b7 5cbd 61fa 8dbb 49bb bebc 6819 bfbd
00000010: 16d4 bbbd ab58 2dbe 5011 3dbd 70e4 f7bd
00000020: 6f77 3cbe 4483 96bd 4cee 693d f260 4dbc
00000030: 7427 d83b f4b9 45be a58a 25be 7f21 a0bc
00000040: 549f 3dbd 7989 24be 6d66 87bb 0780 7b3b
00000050: e841 bf3d 6556 e6ba 6750 833d e081 173d
00000060: c5fc 2fbd 991c 75bb d418 713d 43df a0bd
00000070: 75e9 b33d 1381 01bc 4f24 0a3e f9c6 8d3d
00000080: 6390 3bbd d733 1e3e 0f2d 443d 8b85 2b3d
00000090: 1043 abbd ba69 17be c29a 32bc 072d dcbc
000000a0: 9981 16bd d41c 34be e76d fe3d 082e efbd
000000b0: f867 aabd 69ac b43c e7b4 5f3d 366f ae3d
000000c0: 30eb c43d 94fc aabd 5ce4 d93c 5478 39bd
000000d0: 09fb 3cbc e558 a1bd c845 383e 6236 8d3a
000000e0: ded3 0c3e 44ac e83d 5d17 b33d 04ef 04bc
000000f0: 8f61 373e cf35 923d fc0f 4b3d 1083 bcbd
00000100: b2d1 373d 3c13 7bbc f7f7 30bd 5d45 bc3d
00000110: 5b60 c53c efe6 51bd 220f 41bd c9d8 25bb
00000120: 0d8e 7a3d 0b74 d7bc 57ac 71bd 15cf 09bd
00000130: 4f0a 99bd 6b77 203d 82fb b33d 59a3 c0bd
00000140: abeb db3c be0a 5f3d d58e 9c3c 54be 19bd
00000150: b959 613d cfe4 623d 9f75 213d 2abe 97bc
00000160: 7fa7 e4bc 3bc4 383c 7782 97bc 1af8 ffbc
00000170: 0d02 8a3d 5711 ba3d b938 26bc f89f c0bc
00000180: 9d1d ed3a 64a0 c5bb 4a46 d13c 3f2f f33c
00000190: bed7 c3bd 3071 1fbd af3c b63d aff4 283d
000001a0: 5f93 abbb 43db 81bd 34c6 83bd 342a c1bd
000001b0: 12bc 0cbd 72cc 113d fb8f 893d bb9f 473d
000001c0: 72bc bebd ebf7 81bd 15fc 87bc 4dee d03d
000001d0: b0a3 793c 5bb3 debc 0727 333d a316 24bd
000001e0: df6e 8bbd eef3 9d3d 5b05 44bd 028f acbc
000001f0: cdab d6bd 23bf 903d 56e6 a33d d1f6 1d3d
00000200: 0c8c 96bd 71e4 d4bd c21d afbd 3b0f a13d
00000210: 641b 503d 3c0e b63d 0ab6 623d 5f8c da3c
00000220: fb5a 87ba 352d a4bd 60f5 b8bd c8eb c9bd
00000230: 29be 303d 89fa 53bd cec8 adbc b57a 78bd
00000240: 417a 9cbc d695 97bd fdf7 8cbd be4a 103d
00000250: daca febc 4c99 853d 0b7f 09bd 29e8 9dbd
00000260: de79 97bc 513c 51bd 0015 04bd 3a81 cdbd
00000270: d1b9 713d 333d 96bd 941c 593d 32ee 433d
00000280: bd49 9a3d cc91 a5bd 704d 9b3d db11 4cbd
00000290: ca4e 203d cbbb ca3d 515e 73bc a1f8 54ba
000002a0: 2dd8 c6bc 5a34 b4bd 313b 4f3d 5d4e d6bd
000002b0: 6304 863d 8486 a13d 5828 cc3d ecac cbbc
000002c0: e25f b1bd cf24 c23c 9483 6e3d 8bdd d6bd
000002d0: 29fd c3bc b968 81bd 8e0d 17bc d377 54bd
000002e0: 7f81 30bd 0026 09bd d029 cdbd 0f1c b13d
000002f0: 35f3 b43d df75 87bc 4bad 44bc 8e35 30bd
00000300: 75ee c2bd 7b11 d2bd 3d6e 203d d909 6dbd
00000310: d3cc 8abd a815 07bc 38c8 0fbd 17af 0bbd
00000320: fdeb 5d3b 701b b7bc 649c 14bd 93ba 4ebd
00000330: a7af afbd 9a0c b53d 79c8 2cbd fdce e43c
00000340: 68ce 15bd 0a54 0c3c 8c4d c93d 0ff6 463d
00000350: 2d1a bbbd 2c71 2b3d 27ec cc3d b115 e33c
00000360: 17bb 903d e3d4 d43d ab50 84bc 8a4d b33c
00000370: e708 96bd 7e02 b2bc b8df 9f3d 6443 5d3d
00000380: 0da8 88bd 061c adbd f685 93bd 9b0b d5bd
00000390: 7b94 a6bd b78b d5bc 79b0 913d 6489 903c
000003a0: 9832 a4bd c02e adbd dac9 563d 6594 a0bd
000003b0: eaa6 54bc f836 4f3d d9bd 47bd 5362 3cbc
000003c0: 68c2 15bc 3504 ccbc d3ee 5abd 2c71 c0bd
000003d0: b381 aebd 5f30 67bd 2982 d03d a78b 50bd
000003e0: dcfa 90bd 8343 d13c 45fc ed3c e098 6c3d
000003f0: 0318 a43d fd6e 703d 1d0b d6bd b32b 193c
-0.053886056 -0.004332826 -0.023282664 -0.09331018 -0.091713116 -0.16928355 -0.04615909 -0.12104118
-0.18404935 -0.07349256 0.057112023 -0.012535321 0.0065965 -0.19309217 -0.1616617 -0.019547222
-0.046294525 -0.16068067 -0.004132083 0.003837587 0.093387425 -0.0017573355 0.0641182 0.036989093
-0.04296567 -0.0037401079 0.05886157 -0.07855084 0.08784763 -0.007904309 0.13490413 0.06922717
-0.045791995 0.15449463 0.047894534 0.041875403 -0.083624005 -0.14786425 -0.010901155 -0.02687694
-0.036744688 -0.17589122 0.12423306 -0.11678702 -0.08320612 0.022054868 0.05461588 0.085173056
0.09615171 -0.08348957 0.026598148 -0.04528077 -0.011534461 -0.078782834 0.1799537 0.0010773654
0.13752696 0.11360982 0.087446906 -0.008113626 0.1790831 0.071391694 0.04957579 -0.09204686
0.044877715 -0.01532441 -0.043205228 0.091929175 0.024093797 -0.051245626 -0.047133572 -0.0025306216
0.061170626 -0.02630045 -0.059002247 -0.033644754 -0.07472669 0.039176386 0.08788206 -0.09406156
0.026845774 0.054453604 0.019111076 -0.037535027 0.055017207 0.05539399 0.039418813 -0.018523294
-0.0279119 0.011277254 -0.018494828 -0.031246234 0.067386724 0.090853386 -0.01014536 -0.023513779
0.001809049 -0.006031083 0.025546212 0.029685615 -0.09562634 -0.038926303 0.08898293 0.041248973
-0.005236074 -0.06340649 -0.064342886 -0.09431878 -0.034359045 0.035595365 0.06716915 0.048736315
-0.09313287 -0.06346115 -0.016599694 0.10201702 0.01523678 -0.027185133 0.04373839 -0.04006065
-0.06808256 0.077125415 -0.04785667 -0.021064285 -0.10481987 0.070677064 0.080029175 0.03856546
-0.073509306 -0.10395134 -0.08550598 0.07864233 0.05080737 0.08889434 0.055349387 0.026678262
-0.0010326797 -0.08016435 -0.090311766 -0.09859425 0.0431501 -0.0517526 -0.021213915 -0.060663898
-0.019101264 -0.07401626 -0.068832375 0.03522753 -0.031102587 0.0652338 -0.033568423 -0.07710297
-0.018490728 -0.051082913 -0.03224659 -0.10034414 0.0590151 -0.073358916 0.05300577 0.047834583
0.07533596 -0.08084449 0.075831294 -0.049821716 0.03913764 0.098991 -0.01485403 -0.0008124207
-0.024273003 -0.08799048 0.05059356 -0.10464165 0.065438055 0.07886985 0.099686325 -0.024862729
-0.08660866 0.023699192 0.05823095 -0.10491475 -0.023924427 -0.063188024 -0.00921954 -0.051872086
-0.043092247 -0.033483505 -0.10017741 0.0864793 0.088354506 -0.016535698 -0.012004207 -0.043019824
-0.09518138 -0.102572404 0.03916763 -0.05787072 -0.06777348 -0.008244909 -0.035103053 -0.034102526
0.0033862584 -0.02235195 -0.03628196 -0.0504709 -0.08578425 0.08840294 -0.042183373 0.027930731
-0.036573797 0.008564958 0.09829244 0.048574504 -0.09135852 0.041855976 0.1000598 0.027720304
0.070669346 0.103921674 -0.016151747 0.02188756 -0.07325917 -0.021729704 0.07806343 0.054019347
-0.06672678 -0.08452611 -0.072032854 -0.10402604 -0.08133789 -0.026067598 0.071137376 0.017643638
-0.080174625 -0.084561825 0.052438594 -0.07840804 -0.012979249 0.05058953 -0.048765037 -0.011498052
-0.009140588 -0.02490435 -0.053450417 -0.09396586 -0.08520832 -0.056442615 0.10181076 -0.050914433
-0.07079098 0.025544887 0.029050956 0.05776298 0.08012392 0.058699597 -0.104513384 0.009348798

convblock.2.bias f4 [10]
00000000: 7f6e 7f3e ec0d 42bd 39bb 5fbd 4255 c6bc
00000010: 5d48 8a3d 7d7f 80bd f813 cebc be9a 55bd
00000020: 3d71 aa3b 08be 1abd
0.24944495 -0.04737656 -0.05462191 -0.024210576 0.067520835 -0.062743165 -0.025156006 -0.052149527
0.0052014873 -0.037778884

convblock2.0.weight f4 [10, 10, 3, 3]
00000000: 73a5 9b3d 3f72 6cbd 3f8f 31bd 6db8 153d
00000010: cd83 f63c 620b 723d 2fd3 58bd b9f5 5b3d
00000020: 26a6 9f3d 80ba 6f3d d713 c9bd 89c0 24bd
00000030: 7ca1 b9bd b9c7 88bd 5791 703d c2c0 80bc
00000040: d751 373d 412e 7dbd 6f30 833c 3a94 82bd
00000050: 84da 573d 36da 3cbd 1e8e d8bc 7d4d bbbd
00000060: f587 b639 d6f8 cc3d b490 513d 5820 d9bd
00000070: c2db 62bd d410 113c 529b bcbd 0d36 833d
00000080: 3613 af3d b361 8e3c f2f0 b1bd b7fe e8bc
00000090: 2a21 23bd f7c6 5abc 3dba 833d de6b 1dbd
000000a0: 08ea 093e feb6 1a3e 8b6a 41bd 0ccb 94bd
000000b0: ca46 2f3e 6557 1239 3629 dbbc 421d 8ebd
000000c0: dbb2 13bd 9070 c1bd c2fc bebd 72b3 843d
000000d0: 541a b43d 06f6 b63d b69f adbd 6138 0b3d
000000e0: baa9 40bd f960 8e3d 3e52 a33d 2976 0b3e
000000f0: 366a b43d 0f9c 793d 1029 e53c 83b5 383c
00000100: 970a d2bd 9d98 5f3d aff2 f8bc 3420 7fbc
00000110: 7c48 b0bb 795e 78bc 8fc2 bebd b124 49bc
00000120: 3d8b 02be 0891 2fbe 57b3 3b3d 54fb 7c3d
00000130: 134d be3d f25f 583e e32b 30bd 6818 10be
00000140: 0065 d73d 48fc 7d3d 00e4 b0bd 699d 1f3d
00000150: d179 b93d 7b91 133c 7cca 7dbd 8e83 b13d
00000160: 0e1c 3e3d 66fd 8f3d 36fe 37be ea71 87bd
00000170: 279f ecbd c589 023d da2c 0dbe 9a99 c53c
00000180: feaf a3ba cd4c 16bc d320 26bd 3238 313d
00000190: 94fe 33bd ab87 cbbd c517 26bd ee10 a93d
000001a0: 1857 e4bc 8eb5 063d 971e 20bd e39c a13d
000001b0: ca32 813d f76d 183d 8cb8 5cbd 1466 b0bd
000001c0: 4f0a 823b 434c 7dbd 587e b13d 2c74 cfbd
000001d0: b1ef 403d 6673 c93d 7935 463e a4ea 013c
000001e0: 2890 e3bd 0514 733e adde b6bc 333f 28be
000001f0: c561 e03d 5557 00be 841f 593d 6ddf 9d3e
00000200: 5900 33be 0b45 efba a542 793e b478 a3bd
00000210: 7314 e0bc 52de 41bd f1f6 16be e33c 99bd
00000220: 936e c0bd c038 08be 5fc5 453d da9f b43b
00000230: 149a e8bd 612c 9d3d e878 de3c 25d3 4c3c
00000240: 79d2 a6bd 03e6 b53d 630d d93d 37f3 9b3d
00000250: f8bb 32bb 1908 d53d 0dc1 0abc 4a57 953d
00000260: 68fd 3f3d c0fb 833d 339b 503d c629 8d3d
00000270: 0e42 b1bd 094d 123e 7e49 a4bd a25d a2bd
00000280: f282 1f3d 50ab 93bd cd52 95bc 30b0 813e
00000290: 45c1 d63d 5f76 d03d 4998 a53e 9756 953d
000002a0: acd6 163d b94d 983d 8abf afbd f099 1f3d
000002b0: 23e7 9dbd e376 a3bd 10f5 ec3c d7ce dfbc
000002c0: 6902 253b 0615 79bc 4f41 cd3c 7979 8d3d
000002d0: b336 9cbd e0e7 33bc 5480 233d 20ab 07be
000002e0: ff66 41be 9855 05be ff09 cebd 446c bebd
000002f0: 2092 98bc eb3b d2bc 1f3d 5abd 6c34 09bd
00000300: 448d 1cbd dca1 d33d 401e 20bd 24eb 9abd
00000310: 81c1 323d c72f ccbb a641 a53d 1ae2 863d
00000320: be53 c63d d71a 9ebd 24c8 8a3d f72d b53d
00000330: 1837 55bd 416e c63d b8d4 a13d 1583 b7bd
00000340: 10ac d83d d2df 07bd 01ac 1fbe 8e5a e83d
00000350: 2cd8 883d e592 e2bd 6c4f 8e3d 6435 13be
00000360: ec5d d43a 2950 683e 1977 2f3c de11 bdbd
00000370: d329 823e 30d8 403d b1a8 953c 6030 ec3d
00000380: ed09 e6bc e499 8bbd 020d 7cbd bb21 8bbc
00000390: c2ec 743b dda0 903d d5ac b8bd 849d 2cbc
000003a0: 5119 4b3c 1698 59bd 2746 643c 6eec 003d
000003b0: 9c00 95bd 8df8 34bd 7e68 373b 21b8 613d
000003c0: 9482 d2bc 0344 92bd a49a aabc 7dde c8bd
000003d0: dafe 803c b359 df3d af29 aebd 93ca 193e
000003e0: a3c2 923d 9336 f9bd 90b5 783d 0db9 703d
000003f0: 978a 58be 074c 113d d940 313e e91e 8b3c
0.07599916 -0.05772614 -0.0433495 0.036552835 0.030092144 0.059092887 -0.052935775 0.053701136
0.07795362 0.05852747 -0.09818237 -0.04022268 -0.09064004 -0.06678719 0.058732357 -0.015716914
0.044755783 -0.06181169 0.016014306 -0.06375928 0.052698627 -0.04610654 -0.026434954 -0.09145639
0.0003481504 0.10008399 0.05116339 -0.10601872 -0.05538536 0.00885411 -0.092093125 0.06406794
0.08548586 0.017380571 -0.08688535 -0.02844177 -0.03982655 -0.013353101 0.064320065 -0.03843295
0.13468182 0.15108868 -0.047220748 -0.072652906 0.17116848 0.00013956202 -0.02675305 -0.06939174
-0.03605924 -0.09445298 -0.093255535 0.06479539 0.08794084 0.08933644 -0.08477728 0.033989314
-0.047036864 0.0695209 0.07974671 0.13619293 0.08809321 0.060939845 0.027973682 0.0112737445
-0.10255926 0.054588903 -0.030389158 -0.015571643 -0.0053797346 -0.015159243 -0.09314453 -0.012276814
-0.12748428 -0.17145169 0.04582533 0.061763123 0.092920445 0.2113035 -0.043010604 -0.1407181
0.10517311 0.062008172 -0.086372375 0.038968477 0.09056438 0.009006853 -0.061960682 0.0866767
0.046413474 0.07030754 -0.17968068 -0.06613524 -0.115537934 0.03186967 -0.13786641 0.024121094
-0.0012488363 -0.009173584 -0.040558647 0.043266483 -0.043943956 -0.09937986 -0.040550012 0.08255182
-0.02787356 0.032887988 -0.039091673 0.07891252 0.06308515 0.037214246 -0.053886935 -0.0861322
0.003968514 -0.061840307 0.08666676 -0.1012958 0.047103588 0.09836464 0.19356336 0.007929478
-0.1111148 0.23738106 -0.022322977 -0.16430359 0.10956148 -0.12533315 0.05300857 0.30834523
-0.17480601 -0.0018254829 0.24341829 -0.07982007 -0.027353501 -0.04733116 -0.14742638 -0.07482316
-0.0939609 -0.13302898 0.04828393 0.00551222 -0.11357513 0.0767448 0.027157262 0.012501513
-0.08145613 0.08881762 0.105982564 0.07614749 -0.0027272683 0.10401935 -0.008468878 0.0729204
0.046872526 0.06444502 0.05092926 0.06892733 -0.08655177 0.14287199 -0.0802183 -0.07928015
0.03894324 -0.0721041 -0.018227959 0.25329733 0.10486082 0.101788275 0.32342747 0.07291906
0.03682582 0.074366994 -0.08581455 0.038965166 -0.077101015 -0.0798166 0.028925449 -0.027320309
0.0025178439 -0.015202766 0.025055556 0.06907935 -0.076276205 -0.010980576 0.039917305 -0.13248873
-0.18886946 -0.13020933 -0.100605 -0.09297994 -0.018624365 -0.025663337 -0.053280946 -0.03349726
-0.03822066 0.103336066 -0.03909135 -0.07564381 0.04364157 -0.0062312814 0.08069162 0.06586094
0.09683941 -0.07719963 0.06776455 0.08846658 -0.052054495 0.09688998 0.07901901 -0.08960549
0.10579693 -0.033172436 -0.15592958 0.11345397 0.066818565 -0.11063174 0.06948742 -0.14375836
0.0016202307 0.22686829 0.010709547 -0.092319235 0.25422534 0.047081172 0.018268915 0.11532664
-0.028080905 -0.06816462 -0.061535843 -0.016983857 0.0037372564 0.07061932 -0.0901734 -0.0105356015
0.012396173 -0.053123556 0.013932741 0.031475477 -0.07275507 -0.04418235 0.0027985866 0.05510724
-0.02569703 -0.071418785 -0.020825692 -0.09808061 0.015746523 0.10905781 -0.08504044 0.15018682
0.0716603 -0.12168612 0.060720026 0.05877023 -0.21146618 0.035472896 0.17309894 0.016982513

convblock2.0.bias f4 [10]
00000000: 8fb6 213d 2126 45bd c0c0 643d 5614 c6bd
00000010: 65d2 cdbd cf1f de3d f157 f53d 0ca0 8bbd
00000020: da45 dc3e 378d abbd
0.039480742 -0.048132066 0.055847883 -0.096718475 -0.10049895 0.10845911 0.11979664 -0.06817636
0.43022043 -0.08376544

convblock2.2.weight f4 [10, 10, 3, 3]
00000000: 622b aebd d6d7 92bd 0f4d a33c d131 fdbc
00000010: 5ed8 be3d c48e 4e3c b810 b43d 6e7e 67bd
00000020: ac0e 103d 8ca5 e93d 4099 87bd 54e6 2d3b
00000030: 44f7 5abe dcb9 963d 9a45 e9bc f9ea ffbd
00000040: c681 5c3e dc3f e8bd 036a 8f3c a426 043d
00000050: 8d0c 123e 8e87 0ebe fbb4 0d3e 1e10 593d
00000060: 0c2a c93c d0f3 143e ddb9 49be 1ce1 adbd
00000070: bb7c d03d 53a2 81bd 4c9b 9bbd 6fe2 a8bb
00000080: cd34 0abd 0c47 6cbc 9da2 90bd 2cc9 1b3d
00000090: 59c2 b9bd 81e0 0b3c 65f2 7b3d 74e9 a53c
000000a0: 3678 653c 0d9a 7c3c 6af7 fcbc 657f a4bc
000000b0: 9a11 36bd 5b78 94bd 80c5 00bd dca5 163e
000000c0: 5f31 8ebc d7e7 833d 7507 c13d b27d 2b3d
000000d0: 2d4c 96bd 731e f9bd d897 87bd 6c12 0a3d
000000e0: 1935 9cbd 1c11 53bd 68e8 7c3d 3cf8 c23d
000000f0: 8c53 363d 1e30 843d 38a5 3a3d 3ccb 933b
00000100: fe82 e53c a3bc d63b 3420 a2bd 503d 73bb
00000110: 224a 82bc 9be6 873d a358 953b 2ec0 cbbb
00000120: d130 5c3e 450a 02bd e25e f6bd 54ae 19bc
00000130: 4f58 f6bd d67e 853d f42a 01be 58f6 91bd
00000140: abe4 c93d cde0 84bd cba3 3d3d 5675 2abd
00000150: f996 d23a 4d53 9dbd 4650 cdbb 9bb2 e53c
00000160: 384e 83ba 3b74 31bd 1be9 5e3d 3bc2 4cbc
00000170: 77a2 0ebd 7c4e dfbd b57c 8ebd 0417 f8bd
00000180: 424f 523d eb28 abbd 0e11 33bd a74d c73c
00000190: 78a7 c63d a49f 523d c36f 0f3e 67c1 34bc
000001a0: 226e a73c ec22 f5bb b740 dabd 96fa 0abe
000001b0: bd70 943d 5bc7 763d ec0e cb3d 08fb c73d
000001c0: 05c4 babd 9a77 c0bd bed6 22bd 7319 10be
000001d0: 9754 d0bd e8a7 b0bd 1237 243d 22bf 983d
000001e0: 5cbd 083c 028b 9abd 7b7c a3bd 1615 28bd
000001f0: d327 fb3c a180 283b 6b01 9d3c 0e76 cb3d
00000200: 9b86 483d b9ac b93c 1fb5 aebc f33d 4c3d
00000210: 38f4 1d3d fa4f c2bd d60a 7fbd 5070 7c3b
00000220: a56e 513d 94bb 8d3d 6636 b4bd 3695 07be
00000230: 243b 35bc 5a65 60bd e2ac 8cbc 9ee3 25bd
00000240: 5848 dc3d 990e ba3c 9647 b53d 4960 b3bd
00000250: 5b73 c23b e19e bbbc b52a 8fbd 5a35 093d
00000260: 491d fbbd 480a 013e 9707 ac3b f9f9 e3bc
00000270: 1ede 563d f800 88bc 0948 7a3c 87a8 9b3d
00000280: 7064 c2bd 3412 a93d 4091 a7bd eb4d 89bd
00000290: b7c0 1e3d e4dd 163e 39b0 41bc aa01 2abc
000002a0: 9c09 0e3e c99a 60bd 0a9c da3c 8ecc 7cbc
000002b0: 5ba6 113d 6e76 b53d 7d49 9bbd ab29 4dbd
000002c0: 492e 6f3d 6a0b 85bb 6e9e 073c b223 68bd
000002d0: a77e f73d 21d1 ba3d 4600 b7bc 9407 50bd
000002e0: 4db2 d4bc b29f 8bbd 5a76 e93c 9f78 f13d
000002f0: 220c c8bc db20 38be d3b2 aebd 78ca f6bc
00000300: 8b49 293d cc5b 0f3e ab79 1f3e d2f5 933d
00000310: d5be 0c3e f870 483c b689 92bc baf0 563d
00000320: 21e5 74bd 54d2 d23d 52ba 2a3e a082 99b9
00000330: 4425 943d ec60 c4bb ad67 1abd bc05 a8bd
00000340: b79f 9e3d 68c1 643d 879f 8a3d 6ab2 04bc
00000350: f510 a1bd 89fe 993d b2c9 3cbd 7533 e33c
00000360: 049c 743d 61be c9bd 7039 e53b 0a5f 19bd
00000370: 7e38 993d 2f73 89bd 1f13 833d 7a9d 863d
00000380: d634 6e3d 503f ac3d 5ddd 7b3d d18b 2dbe
00000390: 668c 003e 6276 423d c4f4 c1bd fcd2 81bd
000003a0: e919 acbb 1536 debd 48a5 ff3d 9acf 183e
000003b0: 7ef5 233e 5f1a 903d 6cbd 4dbd 8a3f 06bd
000003c0: 8088 5cbd b073 d3bc 9a33 b03d db4d 5fbd
000003d0: a0f2 dc3d ac8a fabd d83f 76bd bc4e a03d
000003e0: aa65 283d d6d0 60bb 62b8 70bd 20c2 4fbe
000003f0: bfb2 86be ea2f ebbd 5d09 9dbd de1f f9bd
-0.08504368 -0.07170074 0.019934205 -0.030907543 0.093186125 0.01260728 0.08792251 -0.056517057
0.035170242 0.11408529 -0.06621027 0.0026534991 -0.21383387 0.073596686 -0.028475571 -0.12495989
0.2153388 -0.11340305 0.017506605 0.032263413 0.142626 -0.13918898 0.1383857 0.052993886
0.024556182 0.14546132 -0.19699807 -0.08490202 0.101800404 -0.06329789 -0.0759798 -0.005153946
-0.03374176 -0.014421236 -0.07062266 0.03803365 -0.09070272 0.008537413 0.061510462 0.02025292
0.014005711 0.015417588 -0.030879695 -0.020080278 -0.04445038 -0.072495185 -0.03143835 0.14711708
-0.017357526 0.06440704 0.094252504 0.04186792 -0.07338748 -0.12164011 -0.06620759 0.033708975
-0.07627315 -0.05152999 0.061745077 0.09520003 0.04451327 0.0645449 0.04556772 0.0045103114
0.028016564 0.006553249 -0.079162985 -0.0037115403 -0.01590449 0.066357814 0.0045576855 -0.006217978
0.21502997 -0.031748075 -0.12029816 -0.009379942 -0.12028562 0.06518333 -0.12614042 -0.071270645
0.09858068 -0.0648819 0.046298783 -0.041615807 0.0016066722 -0.07681904 -0.006265673 0.028039267
-0.0010017818 -0.043323737 0.054421525 -0.01249748 -0.034822907 -0.109036416 -0.0695738 -0.12113765
0.051345117 -0.08357414 -0.043717436 0.02432902 0.09699911 0.051421776 0.14007477 -0.011032439
0.020438258 -0.0074809697 -0.106568746 -0.13572153 0.072480656 0.060248714 0.099149555 0.09764677
-0.09119419 -0.09397812 -0.039755575 -0.14072208 -0.10172384 -0.086257756 0.04009158 0.07458331
0.008345928 -0.07546045 -0.07982727 -0.041035734 0.030658638 0.0025711434 0.019165715 0.099346265
0.048956495 0.022665368 -0.0213266 0.049863767 0.038562983 -0.094879106 -0.062266193 0.0038519092
0.05113091 0.06920543 -0.08799438 -0.13240513 -0.0110614635 -0.054784156 -0.01717228 -0.040500276
0.10755986 0.022712039 0.088515446 -0.08758599 0.0059341616 -0.022902908 -0.069905676 0.033498146
-0.12261445 0.12601578 0.005249928 -0.027829157 0.05245792 -0.016602024 0.015275964 0.076005034
-0.09491813 0.08255425 -0.08182001 -0.06704315 0.038758006 0.14733082 -0.0118218 -0.010376373
0.13870853 -0.054835115 0.026685733 -0.015429629 0.03555904 0.08860479 -0.07582376 -0.050088566
0.05839375 -0.0040601986 0.008277519 -0.056674667 0.12084704 0.091219194 -0.022338998 -0.050788477
-0.025963927 -0.06817569 0.028498817 0.11790585 -0.024419848 -0.17981283 -0.08530202 -0.030125841
0.0413299 0.13999861 0.15573756 0.07224621 0.13744672 0.012233965 -0.017887931 0.05247567
-0.059788827 0.10294023 0.16672638 -0.00029279757 0.0723367 -0.0059929993 -0.03769653 -0.08204219
0.07745307 0.05584851 0.06768709 -0.008099178 -0.078645624 0.07519252 -0.04609079 0.027734498
0.0597191 -0.09850765 0.0069953725 -0.037444152 0.07481478 -0.06711423 0.064001314 0.06573005
0.058155857 0.084105134 0.061490405 -0.16947867 0.12553558 0.04747618 -0.094705135 -0.0633907
-0.005252112 -0.10850159 0.12482697 0.14922944 0.16011617 0.0703628 -0.050229475 -0.03277544
-0.053841114 -0.025812 0.08603592 -0.054517608 0.107884645 -0.12233481 -0.06011948 0.078275174
0.04111258 -0.0034304163 -0.05876959 -0.20288897 -0.26308247 -0.11483748 -0.076678015 -0.12164281

convblock2.2.bias f4 [10]
00000000: d6bf 6f3d 2fb6 9cbd adae ad3d 706e 5a3d
00000010: ae70 e9bd f91c 6a3c 7357 623e fdf6 d13c
00000020: a71c e03e a121 f8bd
0.05853256 -0.07651936 0.084805824 0.053327978 -0.11398445 0.014289134 0.22103672 0.025630469
0.4377186 -0.12115789

classifier.1.weight f4 [10, 490]
00000000: 95e5 27bc 8cd4 01bd 0b9f 91bd 1254 213c
00000010: 6480 b1bb 8a31 6b3c cf77 c23c addd 5fbd
00000020: c83d 19bd bf8d 883a c27c cd3c 045c be3c
00000030: 91f1 4c3d 5b09 8b3c 378e 9439 2998 bebc
00000040: eceb 5d3d 095b 23bc 6006 1e3d f9d1 493d
00000050: b40e 2dbd 5d7f ccba 38ff 4abb f278 a73c
00000060: ef02 00bc 513b 193d e1a2 863c 3d47 1bbd
00000070: b7f9 0abd 5266 473b 352c aa3c 87a9 6cbd
00000080: 1ffe d93c 878d 3a3c c2a3 22bd def0 1f3c
00000090: d4f1 ab3b 84ae 6abb 5749 913b 42b8 5fbd
000000a0: 2eff a13c e30f 1c3d 90bf 063c e5b5 3e3d
000000b0: 6111 e1bc 03e9 b5bc 93bb 1cbc 84f3 c3bb
000000c0: be55 d6bb 0c8b ce3b fea2 8abc d1c5 c0bc
000000d0: c0f4 1ebd 8a84 c9bb c84d 01bd 80c2 243d
000000e0: 09a9 1e3c fcc2 25bd 4721 e53c f46b 9e3d
000000f0: 782c 233d 91e7 0bbd a12b 39bc 0136 22bc
00000100: 61c3 873c 2b11 2e3d 4ed2 9f3d fe21 603d
00000110: e926 913d bba7 9a3c 2e83 53bc 74f6 813c
00000120: a919 e5bc 013c b23c 71b7 8b3c cbb7 08ba
00000130: e064 83bd a11e cf3c ac60 033d 14f4 c93c
00000140: 881d 0cbd 19e7 f9bb bc1d 51bd 5cb4 85bd
00000150: 4cb2 02bd 42be a73c a2db 46bd b836 31bc
00000160: 6dd1 d5bc 06ab 843a cf5b ca3c 1d61 c13c
00000170: dc51 28bd 54da 8c3c 4684 82bd bf8b 78bd
00000180: 6d26 70bb d848 a63b 60b5 5e3d 2b2c 873d
00000190: 0056 8abb c4c1 813d 8128 d53d 4875 483e
000001a0: aebb 5bbc b1e5 0d3e 92a9 763d 93fd 933d
000001b0: 9999 8a3d 8a98 8b3d b1ea 623d 9884 013e
000001c0: e935 143e b542 2c3e bfe9 903d b4db 82bb
000001d0: e0c7 ba3d 63f4 853d c2db 793d b729 1a3d
000001e0: 2c5c 72bd 1acf 4dbd c941 93bd ff1c 243d
000001f0: fa26 53be 9bf8 47bd 1429 31bd 35c8 f2bd
00000200: 40ab 91bb 98ac 4cbd 3d86 7bbd 3eea 65be
00000210: 844c adbc 29fc a8bb 5426 253c 9935 c2bc
00000220: 96fb 33bd 9b7d 97bd ab90 f5bd a736 7cbd
00000230: 4a21 bdbd 9afc 983d fcc9 b13c 3e96 193c
00000240: 9e3a 18bd e049 31bc 05c4 bdbd 3634 32bc
00000250: 85dd 803c 81c1 723c b337 d33c d51b 9a3c
00000260: b4e0 043c 1333 d83c 3557 11bd dc9d 223c
00000270: 0bc7 773c 5fb9 c4bc ad07 933b 588e 08bd
00000280: 5eec dbbc 56c3 48bb 699c 513b 1f28 3dbc
00000290: 0f36 843c 5e9b f6bc f845 e2bc d167 433d
000002a0: e92f 22bd 76a2 ac3c b908 183d 54e9 173d
000002b0: 5a31 df3c f56f 8dbc 8629 733c 02d0 45bc
000002c0: 3df8 1b3c 8266 113d b3bb a7bc b6cd bebc
000002d0: 5db2 39bd c946 673c 708b f13b db85 823d
000002e0: 8ff7 463b 353a 70bd 8924 253c 6459 013d
000002f0: 52fa ad3c 5a53 603c af33 84bc a907 2abd
00000300: 1352 01bc 35ad 4bbd 74a6 acbb 3806 76bc
00000310: 36df 773c d2c9 963b 5326 01bd 4aaf 8bbc
00000320: 1d9c 033d 27b0 32bc df41 d93c b41c bcbc
00000330: 3384 173d 314a bdbb fbea 81bc 46c9 f0bb
00000340: f3f8 28bd 372b 92bc 6af9 d8bb 64b0 e5ba
00000350: ca92 bebc 13f3 7f3c da56 81bd b728 7fbb
00000360: fda4 f53c 0652 eb3b 06b1 1dbc eb87 21bd
00000370: 1708 b63c 4760 013d dfdc 423d 861e d6bb
00000380: f515 743c 5a53 363d 065a f33b 9c12 afbc
00000390: 3615 47bd 2fea e13b b7ee b2bb 599e 233d
000003a0: 5feb afbc 2c48 903c 4b38 88bc a7eb dabc
000003b0: 2fbc 7d3c 6fc6 8bbd adc2 073d 5156 c53c
000003c0: 2983 04bd 60b7 8e3c 7e22 cebc bcf4 fe3b
000003d0: 80ea 10bd 30e2 31bd d93f 9bbb cd0b b43c
000003e0: b89f a4bb daf1 b7bc f279 a23b e953 3b3c
000003f0: e14a 54bc 4d80 0fbd f961 c6bc dd69 f1bb
-0.010247608 -0.03169684 -0.07110413 0.009846704 -0.0054169167 0.014355073 0.02373877 -0.054654766
-0.037412435 0.001041822 0.025083903 0.023237236 0.050035063 0.016972234 0.00028334718 -0.023265915
0.05418007 -0.009970435 0.0385803 0.04927251 -0.04225035 -0.0015601922 -0.0030974876 0.020443413
-0.007813199 0.037410084 0.016435089 -0.037909735 -0.033929553 0.0030425978 0.020773033 -0.05777886
0.026610432 0.011386282 -0.039706953 0.009762017 0.005247334 -0.0035809586 0.0044337916 -0.05461908
0.019775 0.03810109 0.008224383 0.046560187 -0.027474107 -0.022205835 -0.009566206 -0.005979957
-0.006540983 0.006303197 -0.016923424 -0.023531826 -0.03880763 -0.006149833 -0.03156832 0.040224552
0.009683856 -0.040469155 0.02796997 0.07735434 0.03983733 -0.034156386 -0.011301906 -0.009900571
0.016572656 0.04249684 0.07803784 0.054719917 0.070875 0.018878808 -0.012909694 0.015864588
-0.027966337 0.021757128 0.017055245 -0.00052153756 -0.06415725 0.02528316 0.032074615 0.024652518
-0.03420785 -0.007626426 -0.051053748 -0.065285414 -0.03190832 0.020476464 -0.048549302 -0.010816269
-0.026100839 0.001012177 0.02470198 0.023605878 -0.041093692 0.01719395 -0.063728854 -0.060680147
-0.0036643997 0.0050746016 0.05437219 0.06600221 -0.004221678 0.06335786 0.10408116 0.19575989
-0.013411446 0.13857152 0.06022031 0.072261 0.06767578 0.06816204 0.0553996 0.12648237
0.1447369 0.16822322 0.070758335 -0.003993476 0.091201544 0.06540754 0.061000593 0.03763744
-0.059169933 -0.050246336 -0.07190282 0.040066715 -0.20620337 -0.048821073 -0.043252066 -0.11854593
-0.0044454634 -0.049969286 -0.061407316 -0.22452638 -0.02115465 -0.005157013 0.010079939 -0.023707198
-0.043941103 -0.07397004 -0.11990484 -0.061575558 -0.09234865 0.07470055 0.021702759 0.009374199
-0.037165277 -0.010820836 -0.092659034 -0.010876706 0.015730629 0.014816643 0.025783395 0.0188121
0.008110214 0.026391542 -0.035483558 0.009925332 0.015123139 -0.024014173 0.004486999 -0.033338875
-0.026846107 -0.0030634007 0.0031984097 -0.01154521 0.016139058 -0.030103382 -0.027621254 0.04770643
-0.039596472 0.021073561 0.037117694 0.037087753 0.027245212 -0.0172653 0.014841443 -0.012073519
0.009519634 0.03549815 -0.020475244 -0.02329145 -0.045336116 0.014115998 0.0073713586 0.06373187
0.0030359959 -0.05864926 0.010079511 0.03157939 0.021237526 0.013691748 -0.016137926 -0.04151121
-0.007893103 -0.04972573 -0.005268866 -0.015016131 0.015128901 0.0046016956 -0.03153069 -0.017051358
0.032131303 -0.010906256 0.026520668 -0.022962905 0.03699131 -0.0057766666 -0.015859118 -0.0073482124
-0.04125304 -0.017842872 -0.0066215293 -0.0017523882 -0.023263354 0.015621918 -0.06315394 -0.003893418
0.0299859 0.007181409 -0.009624725 -0.039436262 0.022220654 0.031585958 0.04757392 -0.0065344004
0.014897813 0.044513084 0.007426503 -0.021371178 -0.048604213 0.006894372 -0.005460586 0.039945934
-0.021474538 0.01761254 -0.016628405 -0.026723696 0.015486761 -0.068249576 0.03314464 0.02408901
-0.032351647 0.017421424 -0.025162932 0.0077806395 -0.035379887 -0.0434286 -0.004737836 0.021978283
-0.005023923 -0.022454191 0.0049583847 0.01143358 -0.012957306 -0.035034467 -0.024216639 -0.007367356

classifier.1.bias f4 [10]
00000000: 027d 673d 768e 81bd b747 8c3d 9094 e9bc
00000010: fc2b 3cbe 896b b13d 7787 8a3d 3e78 72bc
00000020: 9575 da3c d5c8 56bd
0.0565157 -0.063260004 0.06849616 -0.028513223 -0.18376154 0.08663089 0.06764119 -0.014799176
0.026667396 -0.052437622
